Overriding model.yaml nc=4 with nc=15
                 from  n    params  module                                  arguments
  0                -1  1      1760  models.common.Conv                      [3, 16, 6, 2, 2]
  1                -1  1      4672  models.common.Conv                      [16, 32, 3, 2]
  2                -1  1      4800  models.common.C3                        [32, 32, 1]
  3                -1  1     18560  models.common.Conv                      [32, 64, 3, 2]
  4                -1  2     29184  models.common.C3                        [64, 64, 2]
  5                -1  1     73984  models.common.Conv                      [64, 128, 3, 2]
  6                -1  3    156928  models.common.C3                        [128, 128, 3]
  7                -1  1    295424  models.common.Conv                      [128, 256, 3, 2]
  8                -1  1    296448  models.common.C3                        [256, 256, 1]
  9                -1  1    164608  models.common.SPPF                      [256, 256, 5]
 10                -1  1     33024  models.common.Conv                      [256, 128, 1, 1]
 11                -1  1         0  torch.nn.modules.upsampling.Upsample    [None, 2, 'nearest']
 12           [-1, 6]  1         0  models.common.Concat                    [1]
 13                -1  1     90880  models.common.C3                        [256, 128, 1, False]
 14                -1  1      8320  models.common.Conv                      [128, 64, 1, 1]
 15                -1  1         0  torch.nn.modules.upsampling.Upsample    [None, 2, 'nearest']
 16           [-1, 4]  1         0  models.common.Concat                    [1]
 17                -1  1     22912  models.common.C3                        [128, 64, 1, False]
 18                -1  1     36992  models.common.Conv                      [64, 64, 3, 2]
 19          [-1, 14]  1         0  models.common.Concat                    [1]
 20                -1  1     74496  models.common.C3                        [128, 128, 1, False]
 21                -1  1    147712  models.common.Conv                      [128, 128, 3, 2]
 22          [-1, 10]  1         0  models.common.Concat                    [1]
 23                -1  1    296448  models.common.C3                        [256, 256, 1, False]
 24      [17, 20, 23]  1      9089  models.yolo.Detect                      [15, [[17, 17], [64, 39], [94, 131]], [64, 128, 256]]
Traceback (most recent call last):
  File "/home/yolov5/AUE8088-PA2/train_simple.py", line 485, in <module>
    main(opt)
  File "/home/yolov5/AUE8088-PA2/train_simple.py", line 480, in main
    train(opt.hyp, opt, device, callbacks)
  File "/home/yolov5/AUE8088-PA2/train_simple.py", line 145, in train
…
